…
 conv_5 (Conv2D)                (None, 100, 15, 512  1180160     ['conv_4[0][0]']                 
                                )                                                                 
                                                                                                  
 bn_5 (BatchNormalization)      (None, 100, 15, 512  2048        ['conv_5[0][0]']                 
                                )                                                                 
                                                                                                  
 maxpool_5 (MaxPooling2D)       (None, 50, 7, 512)   0           ['bn_5[0][0]']                   
                                                                                                  
 conv_6 (Conv2D)                (None, 50, 7, 512)   2359808     ['maxpool_5[0][0]']              
                                                                                                  
 conv_7 (Conv2D)                (None, 50, 7, 512)   2359808     ['conv_6[0][0]']                 
                                                                                                  
 bn_7 (BatchNormalization)      (None, 50, 7, 512)   2048        ['conv_7[0][0]']                 
                                                                                                  
 model_2 (Functional)           (None, 6)            934902      ['bn_7[0][0]']                   
                                                                                                  
 lambda_1 (Lambda)              (None, 50, 7, 512)   0           ['bn_7[0][0]',                   
                                                                  'model_2[0][0]']                
                                                                                                  
 reshape (Reshape)              (None, 50, 3584)     0           ['lambda_1[0][0]']               
                                                                                                  
 fc_9 (Dense)                   (None, 50, 128)      458880      ['reshape[0][0]']                
                                                                                                  
 lstm_10 (LSTM)                 (None, 50, 128)      131584      ['fc_9[0][0]']                   
                                                                                                  
 lstm_10_back (LSTM)            (None, 50, 128)      131584      ['fc_9[0][0]']                   
                                                                                                  
 add (Add)                      (None, 50, 128)      0           ['lstm_10[0][0]',                
                                                                  'lstm_10_back[0][0]']           
                                                                                                  
 lstm_11 (LSTM)                 (None, 50, 128)      131584      ['add[0][0]']                    
                                                                                                  
 lstm_11_back (LSTM)            (None, 50, 128)      131584      ['add[0][0]']                    
                                                                                                  
 concatenate_4 (Concatenate)    (None, 50, 256)      0           ['lstm_11[0][0]',                
                                                                  'lstm_11_back[0][0]']           
                                                                                                  
 dropout (Dropout)              (None, 50, 256)      0           ['concatenate_4[0][0]']          
                                                                                                  
 fc_12 (Dense)                  (None, 50, 37)       9509        ['dropout[0][0]']                
                                                                                                  
 lambda_2 (Lambda)              (None, 48, 37)       0           ['fc_12[0][0]']                  
                                                                                                  
 decode (Lambda)                (None, 48)           0           ['lambda_2[0][0]']               
                                                                                                  
==================================================================================================
Total params: 8,794,267
Trainable params: 8,791,707
Non-trainable params: 2,560
__________________________________________________________________________________________________
Model: "model_5"
__________________________________________________________________________________________________
 Layer (type)                   Output Shape         Param #     Connected to                     
==================================================================================================
 input_2 (InputLayer)           [(None, 31, 200, 1)  0           []                               
                                ]                                                                 
                                                                                                  
 permute (Permute)              (None, 200, 31, 1)   0           ['input_2[0][0]']                
                                                                                                  
 lambda (Lambda)                (None, 200, 31, 1)   0           ['permute[0][0]']                
                                                                                                  
 conv_1 (Conv2D)                (None, 200, 31, 64)  640         ['lambda[0][0]']                 
                                                                                                  
 conv_2 (Conv2D)                (None, 200, 31, 128  73856       ['conv_1[0][0]']                 
                                )                                                                 
                                                                                                  
…
 conv_5 (Conv2D)                (None, 100, 15, 512  1180160     ['conv_4[0][0]']                 
                                )                                                                 
                                                                                                  
 bn_5 (BatchNormalization)      (None, 100, 15, 512  2048        ['conv_5[0][0]']                 
                                )                                                                 
                                                                                                  
 maxpool_5 (MaxPooling2D)       (None, 50, 7, 512)   0           ['bn_5[0][0]']                   
                                                                                                  
 conv_6 (Conv2D)                (None, 50, 7, 512)   2359808     ['maxpool_5[0][0]']              
                                                                                                  
 conv_7 (Conv2D)                (None, 50, 7, 512)   2359808     ['conv_6[0][0]']                 
                                                                                                  
 bn_7 (BatchNormalization)      (None, 50, 7, 512)   2048        ['conv_7[0][0]']                 
                                                                                                  
 model_2 (Functional)           (None, 6)            934902      ['bn_7[0][0]']                   
                                                                                                  
 lambda_1 (Lambda)              (None, 50, 7, 512)   0           ['bn_7[0][0]',                   
                                                                  'model_2[0][0]']                
                                                                                                  
 reshape (Reshape)              (None, 50, 3584)     0           ['lambda_1[0][0]']               
                                                                                                  
 fc_9 (Dense)                   (None, 50, 128)      458880      ['reshape[0][0]']                
                                                                                                  
 lstm_10 (LSTM)                 (None, 50, 128)      131584      ['fc_9[0][0]']                   
                                                                                                  
 lstm_10_back (LSTM)            (None, 50, 128)      131584      ['fc_9[0][0]']                   
                                                                                                  
 add (Add)                      (None, 50, 128)      0           ['lstm_10[0][0]',                
                                                                  'lstm_10_back[0][0]']           
                                                                                                  
 lstm_11 (LSTM)                 (None, 50, 128)      131584      ['add[0][0]']                    
                                                                                                  
 lstm_11_back (LSTM)            (None, 50, 128)      131584      ['add[0][0]']                    
                                                                                                  
 concatenate_4 (Concatenate)    (None, 50, 256)      0           ['lstm_11[0][0]',                
                                                                  'lstm_11_back[0][0]']           
                                                                                                  
 dropout (Dropout)              (None, 50, 256)      0           ['concatenate_4[0][0]']          
                                                                                                  
 fc_12 (Dense)                  (None, 50, 37)       9509        ['dropout[0][0]']                
                                                                                                  
 lambda_2 (Lambda)              (None, 48, 37)       0           ['fc_12[0][0]']                  
                                                                                                  
 decode (Lambda)                (None, 48)           0           ['lambda_2[0][0]']               
                                                                                                  
==================================================================================================
Total params: 8,794,267
Trainable params: 8,791,707
Non-trainable params: 2,560
__________________________________________________________________________________________________
